AE_AtlasNet(
  (encoder): Sequential(
    (0): PointNetfeat(
      (stn): STN3d(
        (conv1): Conv1d(3, 64, kernel_size=(1,), stride=(1,))
        (conv2): Conv1d(64, 128, kernel_size=(1,), stride=(1,))
        (conv3): Conv1d(128, 1024, kernel_size=(1,), stride=(1,))
        (fc1): Linear(in_features=1024, out_features=512, bias=True)
        (fc2): Linear(in_features=512, out_features=256, bias=True)
        (fc3): Linear(in_features=256, out_features=9, bias=True)
        (relu): ReLU()
      )
      (conv1): Conv1d(3, 64, kernel_size=(1,), stride=(1,))
      (conv2): Conv1d(64, 128, kernel_size=(1,), stride=(1,))
      (conv3): Conv1d(128, 1024, kernel_size=(1,), stride=(1,))
      (bn1): BatchNorm1d(64, eps=1e-05, momentum=0.1, affine=True, track_running_stats=True)
      (bn2): BatchNorm1d(128, eps=1e-05, momentum=0.1, affine=True, track_running_stats=True)
      (bn3): BatchNorm1d(1024, eps=1e-05, momentum=0.1, affine=True, track_running_stats=True)
    )
    (1): Linear(in_features=1024, out_features=1024, bias=True)
    (2): BatchNorm1d(1024, eps=1e-05, momentum=0.1, affine=True, track_running_stats=True)
    (3): ReLU()
  )
  (decoder): ModuleList(
    (0): PointGenCon(
      (conv1): Conv1d(1026, 1026, kernel_size=(1,), stride=(1,))
      (conv2): Conv1d(1026, 513, kernel_size=(1,), stride=(1,))
      (conv3): Conv1d(513, 256, kernel_size=(1,), stride=(1,))
      (conv4): Conv1d(256, 3, kernel_size=(1,), stride=(1,))
      (th): Tanh()
      (bn1): BatchNorm1d(1026, eps=1e-05, momentum=0.1, affine=True, track_running_stats=True)
      (bn2): BatchNorm1d(513, eps=1e-05, momentum=0.1, affine=True, track_running_stats=True)
      (bn3): BatchNorm1d(256, eps=1e-05, momentum=0.1, affine=True, track_running_stats=True)
    )
    (1): PointGenCon(
      (conv1): Conv1d(1026, 1026, kernel_size=(1,), stride=(1,))
      (conv2): Conv1d(1026, 513, kernel_size=(1,), stride=(1,))
      (conv3): Conv1d(513, 256, kernel_size=(1,), stride=(1,))
      (conv4): Conv1d(256, 3, kernel_size=(1,), stride=(1,))
      (th): Tanh()
      (bn1): BatchNorm1d(1026, eps=1e-05, momentum=0.1, affine=True, track_running_stats=True)
      (bn2): BatchNorm1d(513, eps=1e-05, momentum=0.1, affine=True, track_running_stats=True)
      (bn3): BatchNorm1d(256, eps=1e-05, momentum=0.1, affine=True, track_running_stats=True)
    )
    (2): PointGenCon(
      (conv1): Conv1d(1026, 1026, kernel_size=(1,), stride=(1,))
      (conv2): Conv1d(1026, 513, kernel_size=(1,), stride=(1,))
      (conv3): Conv1d(513, 256, kernel_size=(1,), stride=(1,))
      (conv4): Conv1d(256, 3, kernel_size=(1,), stride=(1,))
      (th): Tanh()
      (bn1): BatchNorm1d(1026, eps=1e-05, momentum=0.1, affine=True, track_running_stats=True)
      (bn2): BatchNorm1d(513, eps=1e-05, momentum=0.1, affine=True, track_running_stats=True)
      (bn3): BatchNorm1d(256, eps=1e-05, momentum=0.1, affine=True, track_running_stats=True)
    )
    (3): PointGenCon(
      (conv1): Conv1d(1026, 1026, kernel_size=(1,), stride=(1,))
      (conv2): Conv1d(1026, 513, kernel_size=(1,), stride=(1,))
      (conv3): Conv1d(513, 256, kernel_size=(1,), stride=(1,))
      (conv4): Conv1d(256, 3, kernel_size=(1,), stride=(1,))
      (th): Tanh()
      (bn1): BatchNorm1d(1026, eps=1e-05, momentum=0.1, affine=True, track_running_stats=True)
      (bn2): BatchNorm1d(513, eps=1e-05, momentum=0.1, affine=True, track_running_stats=True)
      (bn3): BatchNorm1d(256, eps=1e-05, momentum=0.1, affine=True, track_running_stats=True)
    )
    (4): PointGenCon(
      (conv1): Conv1d(1026, 1026, kernel_size=(1,), stride=(1,))
      (conv2): Conv1d(1026, 513, kernel_size=(1,), stride=(1,))
      (conv3): Conv1d(513, 256, kernel_size=(1,), stride=(1,))
      (conv4): Conv1d(256, 3, kernel_size=(1,), stride=(1,))
      (th): Tanh()
      (bn1): BatchNorm1d(1026, eps=1e-05, momentum=0.1, affine=True, track_running_stats=True)
      (bn2): BatchNorm1d(513, eps=1e-05, momentum=0.1, affine=True, track_running_stats=True)
      (bn3): BatchNorm1d(256, eps=1e-05, momentum=0.1, affine=True, track_running_stats=True)
    )
    (5): PointGenCon(
      (conv1): Conv1d(1026, 1026, kernel_size=(1,), stride=(1,))
      (conv2): Conv1d(1026, 513, kernel_size=(1,), stride=(1,))
      (conv3): Conv1d(513, 256, kernel_size=(1,), stride=(1,))
      (conv4): Conv1d(256, 3, kernel_size=(1,), stride=(1,))
      (th): Tanh()
      (bn1): BatchNorm1d(1026, eps=1e-05, momentum=0.1, affine=True, track_running_stats=True)
      (bn2): BatchNorm1d(513, eps=1e-05, momentum=0.1, affine=True, track_running_stats=True)
      (bn3): BatchNorm1d(256, eps=1e-05, momentum=0.1, affine=True, track_running_stats=True)
    )
    (6): PointGenCon(
      (conv1): Conv1d(1026, 1026, kernel_size=(1,), stride=(1,))
      (conv2): Conv1d(1026, 513, kernel_size=(1,), stride=(1,))
      (conv3): Conv1d(513, 256, kernel_size=(1,), stride=(1,))
      (conv4): Conv1d(256, 3, kernel_size=(1,), stride=(1,))
      (th): Tanh()
      (bn1): BatchNorm1d(1026, eps=1e-05, momentum=0.1, affine=True, track_running_stats=True)
      (bn2): BatchNorm1d(513, eps=1e-05, momentum=0.1, affine=True, track_running_stats=True)
      (bn3): BatchNorm1d(256, eps=1e-05, momentum=0.1, affine=True, track_running_stats=True)
    )
    (7): PointGenCon(
      (conv1): Conv1d(1026, 1026, kernel_size=(1,), stride=(1,))
      (conv2): Conv1d(1026, 513, kernel_size=(1,), stride=(1,))
      (conv3): Conv1d(513, 256, kernel_size=(1,), stride=(1,))
      (conv4): Conv1d(256, 3, kernel_size=(1,), stride=(1,))
      (th): Tanh()
      (bn1): BatchNorm1d(1026, eps=1e-05, momentum=0.1, affine=True, track_running_stats=True)
      (bn2): BatchNorm1d(513, eps=1e-05, momentum=0.1, affine=True, track_running_stats=True)
      (bn3): BatchNorm1d(256, eps=1e-05, momentum=0.1, affine=True, track_running_stats=True)
    )
    (8): PointGenCon(
      (conv1): Conv1d(1026, 1026, kernel_size=(1,), stride=(1,))
      (conv2): Conv1d(1026, 513, kernel_size=(1,), stride=(1,))
      (conv3): Conv1d(513, 256, kernel_size=(1,), stride=(1,))
      (conv4): Conv1d(256, 3, kernel_size=(1,), stride=(1,))
      (th): Tanh()
      (bn1): BatchNorm1d(1026, eps=1e-05, momentum=0.1, affine=True, track_running_stats=True)
      (bn2): BatchNorm1d(513, eps=1e-05, momentum=0.1, affine=True, track_running_stats=True)
      (bn3): BatchNorm1d(256, eps=1e-05, momentum=0.1, affine=True, track_running_stats=True)
    )
    (9): PointGenCon(
      (conv1): Conv1d(1026, 1026, kernel_size=(1,), stride=(1,))
      (conv2): Conv1d(1026, 513, kernel_size=(1,), stride=(1,))
      (conv3): Conv1d(513, 256, kernel_size=(1,), stride=(1,))
      (conv4): Conv1d(256, 3, kernel_size=(1,), stride=(1,))
      (th): Tanh()
      (bn1): BatchNorm1d(1026, eps=1e-05, momentum=0.1, affine=True, track_running_stats=True)
      (bn2): BatchNorm1d(513, eps=1e-05, momentum=0.1, affine=True, track_running_stats=True)
      (bn3): BatchNorm1d(256, eps=1e-05, momentum=0.1, affine=True, track_running_stats=True)
    )
    (10): PointGenCon(
      (conv1): Conv1d(1026, 1026, kernel_size=(1,), stride=(1,))
      (conv2): Conv1d(1026, 513, kernel_size=(1,), stride=(1,))
      (conv3): Conv1d(513, 256, kernel_size=(1,), stride=(1,))
      (conv4): Conv1d(256, 3, kernel_size=(1,), stride=(1,))
      (th): Tanh()
      (bn1): BatchNorm1d(1026, eps=1e-05, momentum=0.1, affine=True, track_running_stats=True)
      (bn2): BatchNorm1d(513, eps=1e-05, momentum=0.1, affine=True, track_running_stats=True)
      (bn3): BatchNorm1d(256, eps=1e-05, momentum=0.1, affine=True, track_running_stats=True)
    )
    (11): PointGenCon(
      (conv1): Conv1d(1026, 1026, kernel_size=(1,), stride=(1,))
      (conv2): Conv1d(1026, 513, kernel_size=(1,), stride=(1,))
      (conv3): Conv1d(513, 256, kernel_size=(1,), stride=(1,))
      (conv4): Conv1d(256, 3, kernel_size=(1,), stride=(1,))
      (th): Tanh()
      (bn1): BatchNorm1d(1026, eps=1e-05, momentum=0.1, affine=True, track_running_stats=True)
      (bn2): BatchNorm1d(513, eps=1e-05, momentum=0.1, affine=True, track_running_stats=True)
      (bn3): BatchNorm1d(256, eps=1e-05, momentum=0.1, affine=True, track_running_stats=True)
    )
    (12): PointGenCon(
      (conv1): Conv1d(1026, 1026, kernel_size=(1,), stride=(1,))
      (conv2): Conv1d(1026, 513, kernel_size=(1,), stride=(1,))
      (conv3): Conv1d(513, 256, kernel_size=(1,), stride=(1,))
      (conv4): Conv1d(256, 3, kernel_size=(1,), stride=(1,))
      (th): Tanh()
      (bn1): BatchNorm1d(1026, eps=1e-05, momentum=0.1, affine=True, track_running_stats=True)
      (bn2): BatchNorm1d(513, eps=1e-05, momentum=0.1, affine=True, track_running_stats=True)
      (bn3): BatchNorm1d(256, eps=1e-05, momentum=0.1, affine=True, track_running_stats=True)
    )
    (13): PointGenCon(
      (conv1): Conv1d(1026, 1026, kernel_size=(1,), stride=(1,))
      (conv2): Conv1d(1026, 513, kernel_size=(1,), stride=(1,))
      (conv3): Conv1d(513, 256, kernel_size=(1,), stride=(1,))
      (conv4): Conv1d(256, 3, kernel_size=(1,), stride=(1,))
      (th): Tanh()
      (bn1): BatchNorm1d(1026, eps=1e-05, momentum=0.1, affine=True, track_running_stats=True)
      (bn2): BatchNorm1d(513, eps=1e-05, momentum=0.1, affine=True, track_running_stats=True)
      (bn3): BatchNorm1d(256, eps=1e-05, momentum=0.1, affine=True, track_running_stats=True)
    )
    (14): PointGenCon(
      (conv1): Conv1d(1026, 1026, kernel_size=(1,), stride=(1,))
      (conv2): Conv1d(1026, 513, kernel_size=(1,), stride=(1,))
      (conv3): Conv1d(513, 256, kernel_size=(1,), stride=(1,))
      (conv4): Conv1d(256, 3, kernel_size=(1,), stride=(1,))
      (th): Tanh()
      (bn1): BatchNorm1d(1026, eps=1e-05, momentum=0.1, affine=True, track_running_stats=True)
      (bn2): BatchNorm1d(513, eps=1e-05, momentum=0.1, affine=True, track_running_stats=True)
      (bn3): BatchNorm1d(256, eps=1e-05, momentum=0.1, affine=True, track_running_stats=True)
    )
    (15): PointGenCon(
      (conv1): Conv1d(1026, 1026, kernel_size=(1,), stride=(1,))
      (conv2): Conv1d(1026, 513, kernel_size=(1,), stride=(1,))
      (conv3): Conv1d(513, 256, kernel_size=(1,), stride=(1,))
      (conv4): Conv1d(256, 3, kernel_size=(1,), stride=(1,))
      (th): Tanh()
      (bn1): BatchNorm1d(1026, eps=1e-05, momentum=0.1, affine=True, track_running_stats=True)
      (bn2): BatchNorm1d(513, eps=1e-05, momentum=0.1, affine=True, track_running_stats=True)
      (bn3): BatchNorm1d(256, eps=1e-05, momentum=0.1, affine=True, track_running_stats=True)
    )
    (16): PointGenCon(
      (conv1): Conv1d(1026, 1026, kernel_size=(1,), stride=(1,))
      (conv2): Conv1d(1026, 513, kernel_size=(1,), stride=(1,))
      (conv3): Conv1d(513, 256, kernel_size=(1,), stride=(1,))
      (conv4): Conv1d(256, 3, kernel_size=(1,), stride=(1,))
      (th): Tanh()
      (bn1): BatchNorm1d(1026, eps=1e-05, momentum=0.1, affine=True, track_running_stats=True)
      (bn2): BatchNorm1d(513, eps=1e-05, momentum=0.1, affine=True, track_running_stats=True)
      (bn3): BatchNorm1d(256, eps=1e-05, momentum=0.1, affine=True, track_running_stats=True)
    )
    (17): PointGenCon(
      (conv1): Conv1d(1026, 1026, kernel_size=(1,), stride=(1,))
      (conv2): Conv1d(1026, 513, kernel_size=(1,), stride=(1,))
      (conv3): Conv1d(513, 256, kernel_size=(1,), stride=(1,))
      (conv4): Conv1d(256, 3, kernel_size=(1,), stride=(1,))
      (th): Tanh()
      (bn1): BatchNorm1d(1026, eps=1e-05, momentum=0.1, affine=True, track_running_stats=True)
      (bn2): BatchNorm1d(513, eps=1e-05, momentum=0.1, affine=True, track_running_stats=True)
      (bn3): BatchNorm1d(256, eps=1e-05, momentum=0.1, affine=True, track_running_stats=True)
    )
    (18): PointGenCon(
      (conv1): Conv1d(1026, 1026, kernel_size=(1,), stride=(1,))
      (conv2): Conv1d(1026, 513, kernel_size=(1,), stride=(1,))
      (conv3): Conv1d(513, 256, kernel_size=(1,), stride=(1,))
      (conv4): Conv1d(256, 3, kernel_size=(1,), stride=(1,))
      (th): Tanh()
      (bn1): BatchNorm1d(1026, eps=1e-05, momentum=0.1, affine=True, track_running_stats=True)
      (bn2): BatchNorm1d(513, eps=1e-05, momentum=0.1, affine=True, track_running_stats=True)
      (bn3): BatchNorm1d(256, eps=1e-05, momentum=0.1, affine=True, track_running_stats=True)
    )
    (19): PointGenCon(
      (conv1): Conv1d(1026, 1026, kernel_size=(1,), stride=(1,))
      (conv2): Conv1d(1026, 513, kernel_size=(1,), stride=(1,))
      (conv3): Conv1d(513, 256, kernel_size=(1,), stride=(1,))
      (conv4): Conv1d(256, 3, kernel_size=(1,), stride=(1,))
      (th): Tanh()
      (bn1): BatchNorm1d(1026, eps=1e-05, momentum=0.1, affine=True, track_running_stats=True)
      (bn2): BatchNorm1d(513, eps=1e-05, momentum=0.1, affine=True, track_running_stats=True)
      (bn3): BatchNorm1d(256, eps=1e-05, momentum=0.1, affine=True, track_running_stats=True)
    )
    (20): PointGenCon(
      (conv1): Conv1d(1026, 1026, kernel_size=(1,), stride=(1,))
      (conv2): Conv1d(1026, 513, kernel_size=(1,), stride=(1,))
      (conv3): Conv1d(513, 256, kernel_size=(1,), stride=(1,))
      (conv4): Conv1d(256, 3, kernel_size=(1,), stride=(1,))
      (th): Tanh()
      (bn1): BatchNorm1d(1026, eps=1e-05, momentum=0.1, affine=True, track_running_stats=True)
      (bn2): BatchNorm1d(513, eps=1e-05, momentum=0.1, affine=True, track_running_stats=True)
      (bn3): BatchNorm1d(256, eps=1e-05, momentum=0.1, affine=True, track_running_stats=True)
    )
    (21): PointGenCon(
      (conv1): Conv1d(1026, 1026, kernel_size=(1,), stride=(1,))
      (conv2): Conv1d(1026, 513, kernel_size=(1,), stride=(1,))
      (conv3): Conv1d(513, 256, kernel_size=(1,), stride=(1,))
      (conv4): Conv1d(256, 3, kernel_size=(1,), stride=(1,))
      (th): Tanh()
      (bn1): BatchNorm1d(1026, eps=1e-05, momentum=0.1, affine=True, track_running_stats=True)
      (bn2): BatchNorm1d(513, eps=1e-05, momentum=0.1, affine=True, track_running_stats=True)
      (bn3): BatchNorm1d(256, eps=1e-05, momentum=0.1, affine=True, track_running_stats=True)
    )
    (22): PointGenCon(
      (conv1): Conv1d(1026, 1026, kernel_size=(1,), stride=(1,))
      (conv2): Conv1d(1026, 513, kernel_size=(1,), stride=(1,))
      (conv3): Conv1d(513, 256, kernel_size=(1,), stride=(1,))
      (conv4): Conv1d(256, 3, kernel_size=(1,), stride=(1,))
      (th): Tanh()
      (bn1): BatchNorm1d(1026, eps=1e-05, momentum=0.1, affine=True, track_running_stats=True)
      (bn2): BatchNorm1d(513, eps=1e-05, momentum=0.1, affine=True, track_running_stats=True)
      (bn3): BatchNorm1d(256, eps=1e-05, momentum=0.1, affine=True, track_running_stats=True)
    )
    (23): PointGenCon(
      (conv1): Conv1d(1026, 1026, kernel_size=(1,), stride=(1,))
      (conv2): Conv1d(1026, 513, kernel_size=(1,), stride=(1,))
      (conv3): Conv1d(513, 256, kernel_size=(1,), stride=(1,))
      (conv4): Conv1d(256, 3, kernel_size=(1,), stride=(1,))
      (th): Tanh()
      (bn1): BatchNorm1d(1026, eps=1e-05, momentum=0.1, affine=True, track_running_stats=True)
      (bn2): BatchNorm1d(513, eps=1e-05, momentum=0.1, affine=True, track_running_stats=True)
      (bn3): BatchNorm1d(256, eps=1e-05, momentum=0.1, affine=True, track_running_stats=True)
    )
    (24): PointGenCon(
      (conv1): Conv1d(1026, 1026, kernel_size=(1,), stride=(1,))
      (conv2): Conv1d(1026, 513, kernel_size=(1,), stride=(1,))
      (conv3): Conv1d(513, 256, kernel_size=(1,), stride=(1,))
      (conv4): Conv1d(256, 3, kernel_size=(1,), stride=(1,))
      (th): Tanh()
      (bn1): BatchNorm1d(1026, eps=1e-05, momentum=0.1, affine=True, track_running_stats=True)
      (bn2): BatchNorm1d(513, eps=1e-05, momentum=0.1, affine=True, track_running_stats=True)
      (bn3): BatchNorm1d(256, eps=1e-05, momentum=0.1, affine=True, track_running_stats=True)
    )
  )
)
